Using TensorFlow backend.

Found 4717 images belonging to 19 classes.

Found 1671 images belonging to 19 classes.

Training set: (4717, 19)
Testing set: (1671, 19)


LeNet Model:
_________________________________________________________________
Layer (type)                 Output Shape              Param #   
=================================================================
conv2d_1 (Conv2D)            (None, 252, 252, 20)      1520      
_________________________________________________________________
activation_1 (Activation)    (None, 252, 252, 20)      0         
_________________________________________________________________
max_pooling2d_1 (MaxPooling2 (None, 126, 126, 20)      0         
_________________________________________________________________
conv2d_2 (Conv2D)            (None, 122, 122, 50)      25050     
_________________________________________________________________
activation_2 (Activation)    (None, 122, 122, 50)      0         
_________________________________________________________________
max_pooling2d_2 (MaxPooling2 (None, 61, 61, 50)        0         
_________________________________________________________________
flatten_1 (Flatten)          (None, 186050)            0         
_________________________________________________________________
dense_1 (Dense)              (None, 500)               93025500  
_________________________________________________________________
activation_3 (Activation)    (None, 500)               0         
_________________________________________________________________
dense_2 (Dense)              (None, 19)                9519      
_________________________________________________________________
activation_4 (Activation)    (None, 19)                0         
=================================================================
Total params: 93,061,589
Trainable params: 93,061,589
Non-trainable params: 0
_________________________________________________________________
None

Fitting the model process has begun...

Epoch 1/50
36/36 [==============================] - 104s 3s/step - loss: 3.3534 - acc: 0.3848
Epoch 2/50
36/36 [==============================] - 99s 3s/step - loss: 1.3289 - acc: 0.6137
…
Epoch 49/50
36/36 [==============================] - 97s 3s/step - loss: 0.0751 - acc: 0.9783
Epoch 50/50
36/36 [==============================] - 97s 3s/step - loss: 0.0730 - acc: 0.9784

LeNet Model fitting process has ended successfully.
Log file is generated with the name 'le_model_training.log'
Log file is generated with the name 'lenet_model_training.csv'

AlexNet Model:
_________________________________________________________________
Layer (type)                 Output Shape              Param #   
=================================================================
conv2d_3 (Conv2D)            (None, 256, 256, 96)      34944     
_________________________________________________________________
batch_normalization_1 (Batch (None, 256, 256, 96)      384       
_________________________________________________________________
activation_5 (Activation)    (None, 256, 256, 96)      0         
_________________________________________________________________
max_pooling2d_3 (MaxPooling2 (None, 128, 128, 96)      0         
_________________________________________________________________
conv2d_4 (Conv2D)            (None, 128, 128, 256)     614656    
_________________________________________________________________
batch_normalization_2 (Batch (None, 128, 128, 256)     1024      
_________________________________________________________________
activation_6 (Activation)    (None, 128, 128, 256)     0         
_________________________________________________________________
max_pooling2d_4 (MaxPooling2 (None, 64, 64, 256)       0         
_________________________________________________________________
zero_padding2d_1 (ZeroPaddin (None, 66, 66, 256)       0         
_________________________________________________________________
conv2d_5 (Conv2D)            (None, 66, 66, 512)       1180160   
_________________________________________________________________
batch_normalization_3 (Batch (None, 66, 66, 512)       2048      
_________________________________________________________________
activation_7 (Activation)    (None, 66, 66, 512)       0         
_________________________________________________________________
max_pooling2d_5 (MaxPooling2 (None, 33, 33, 512)       0         
_________________________________________________________________
zero_padding2d_2 (ZeroPaddin (None, 35, 35, 512)       0         
_________________________________________________________________
conv2d_6 (Conv2D)            (None, 35, 35, 1024)      4719616   
_________________________________________________________________
batch_normalization_4 (Batch (None, 35, 35, 1024)      4096      
_________________________________________________________________
activation_8 (Activation)    (None, 35, 35, 1024)      0         
_________________________________________________________________
zero_padding2d_3 (ZeroPaddin (None, 37, 37, 1024)      0         
_________________________________________________________________
conv2d_7 (Conv2D)            (None, 37, 37, 1024)      9438208   
_________________________________________________________________
batch_normalization_5 (Batch (None, 37, 37, 1024)      4096      
_________________________________________________________________
activation_9 (Activation)    (None, 37, 37, 1024)      0         
_________________________________________________________________
max_pooling2d_6 (MaxPooling2 (None, 18, 18, 1024)      0         
_________________________________________________________________
flatten_2 (Flatten)          (None, 331776)            0         
_________________________________________________________________
dense_3 (Dense)              (None, 3072)              1019218944
_________________________________________________________________
batch_normalization_6 (Batch (None, 3072)              12288     
_________________________________________________________________
activation_10 (Activation)   (None, 3072)              0         
_________________________________________________________________
dropout_1 (Dropout)          (None, 3072)              0         
_________________________________________________________________
dense_4 (Dense)              (None, 4096)              12587008  
_________________________________________________________________
batch_normalization_7 (Batch (None, 4096)              16384     
_________________________________________________________________
activation_11 (Activation)   (None, 4096)              0         
_________________________________________________________________
dropout_2 (Dropout)          (None, 4096)              0         
_________________________________________________________________
dense_5 (Dense)              (None, 19)                77843     
_________________________________________________________________
batch_normalization_8 (Batch (None, 19)                76        
_________________________________________________________________
activation_12 (Activation)   (None, 19)                0         
=================================================================
Total params: 1,047,911,775
Trainable params: 1,047,891,577
Non-trainable params: 20,198
_________________________________________________________________
None

Fitting the model process has begun...

Epoch 1/50

// RESOURCES EXHAUSTION ERROR

LeNet Model evaluation & prediction process starting...
52/52 [==============================] - 9s 172ms/step
52/52 [==============================] - 9s 172ms/step
Evaluation and prediction scores are saved.

VGG16 Model:
_________________________________________________________________
Layer (type)                 Output Shape              Param #   
=================================================================
zero_padding2d_17 (ZeroPaddi (None, 258, 258, 3)       0         
_________________________________________________________________
conv2d_21 (Conv2D)           (None, 256, 256, 64)      1792      
_________________________________________________________________
zero_padding2d_18 (ZeroPaddi (None, 258, 258, 64)      0         
_________________________________________________________________
conv2d_22 (Conv2D)           (None, 256, 256, 64)      36928     
_________________________________________________________________
max_pooling2d_12 (MaxPooling (None, 128, 128, 64)      0         
_________________________________________________________________
zero_padding2d_19 (ZeroPaddi (None, 130, 130, 64)      0         
_________________________________________________________________
conv2d_23 (Conv2D)           (None, 128, 128, 128)     73856     
_________________________________________________________________
zero_padding2d_20 (ZeroPaddi (None, 130, 130, 128)     0         
_________________________________________________________________
conv2d_24 (Conv2D)           (None, 128, 128, 128)     147584    
_________________________________________________________________
max_pooling2d_13 (MaxPooling (None, 64, 64, 128)       0         
_________________________________________________________________
zero_padding2d_21 (ZeroPaddi (None, 66, 66, 128)       0         
_________________________________________________________________
conv2d_25 (Conv2D)           (None, 64, 64, 256)       295168    
_________________________________________________________________
zero_padding2d_22 (ZeroPaddi (None, 66, 66, 256)       0         
_________________________________________________________________
conv2d_26 (Conv2D)           (None, 64, 64, 256)       590080    
_________________________________________________________________
zero_padding2d_23 (ZeroPaddi (None, 66, 66, 256)       0         
_________________________________________________________________
conv2d_27 (Conv2D)           (None, 64, 64, 256)       590080    
_________________________________________________________________
max_pooling2d_14 (MaxPooling (None, 32, 32, 256)       0         
_________________________________________________________________
zero_padding2d_24 (ZeroPaddi (None, 34, 34, 256)       0         
_________________________________________________________________
conv2d_28 (Conv2D)           (None, 32, 32, 512)       1180160   
_________________________________________________________________
zero_padding2d_25 (ZeroPaddi (None, 34, 34, 512)       0         
_________________________________________________________________
conv2d_29 (Conv2D)           (None, 32, 32, 512)       2359808   
_________________________________________________________________
zero_padding2d_26 (ZeroPaddi (None, 34, 34, 512)       0         
_________________________________________________________________
conv2d_30 (Conv2D)           (None, 32, 32, 512)       2359808   
_________________________________________________________________
max_pooling2d_15 (MaxPooling (None, 16, 16, 512)       0         
_________________________________________________________________
zero_padding2d_27 (ZeroPaddi (None, 18, 18, 512)       0         
_________________________________________________________________
conv2d_31 (Conv2D)           (None, 16, 16, 512)       2359808   
_________________________________________________________________
zero_padding2d_28 (ZeroPaddi (None, 18, 18, 512)       0         
_________________________________________________________________
conv2d_32 (Conv2D)           (None, 16, 16, 512)       2359808   
_________________________________________________________________
zero_padding2d_29 (ZeroPaddi (None, 18, 18, 512)       0         
_________________________________________________________________
conv2d_33 (Conv2D)           (None, 16, 16, 512)       2359808   
_________________________________________________________________
max_pooling2d_16 (MaxPooling (None, 8, 8, 512)         0         
_________________________________________________________________
flatten_4 (Flatten)          (None, 32768)             0         
_________________________________________________________________
dense_9 (Dense)              (None, 4096)              134221824 
_________________________________________________________________
dropout_5 (Dropout)          (None, 4096)              0         
_________________________________________________________________
dense_10 (Dense)             (None, 4096)              16781312  
_________________________________________________________________
dropout_6 (Dropout)          (None, 4096)              0         
_________________________________________________________________
dense_11 (Dense)             (None, 1000)              4097000   
=================================================================
Total params: 169,814,824
Trainable params: 169,814,824
Non-trainable params: 0
_________________________________________________________________
None

Fitting the model process has begun...

Epoch 1/50
36/36 [==============================] - 101s 3s/step - loss: 0.0874 - acc: 0.9727
Epoch 2/50
36/36 [==============================] - 100s 3s/step - loss: 0.0861 - acc: 0.9747
…
